Assets/ML Pose.onnx (onnx, 128920 bytes, 5 tensors)

network_body._body_endoder.seq_layers.0.weight f4 [128, 108]
000000 32 c3 c5 3d b3 2a 62 3d 03 52 83 bd 85 38 08 be
       0.09656371 0.055216502 -0.06412127 -0.1330281
000010 3f 5b 29 3e 6d 09 1f 3d f3 e8 86 bd fe 92 6e 3d
       0.16538714 0.03882735 -0.065874 0.05824565
000020 71 b7 86 bd 81 f4 24 3d 27 3b 83 bd 40 8c 38 bd
       -0.065779574 0.04027224 -0.06407767 -0.045055628
000030 36 84 31 3e 04 15 28 bd 01 72 d4 bd ad 38 3f 3c
       0.1733559 -0.041035667 -0.10373307 0.011671227
000040 2c be 9f 3c 5a ac fb bd 09 f5 5d 3d 0f 14 2a 3e
       0.01949986 -0.12288733 0.05418876 0.16609214
000050 5a a8 ec bc fd 17 81 3c 0f 25 93 3b e7 c6 d8 3c
       -0.02888887 0.015758509 0.0044905017 0.026462032
000060 7b 23 b4 bd 82 92 5f 3d a1 b5 8e bd c1 d7 10 3e
       -0.0879583 0.05458308 -0.06968237 0.14144804
000070 6d 55 c1 3d 0e 70 6c 3d 63 7f b6 bc 7a 40 08 bc
       0.09440122 0.05772405 -0.02227754 -0.008316154
000080 5b 5f 14 3d 84 f0 76 3d 7d f4 71 3d ec a3 74 3d
       0.03622375 0.060287967 0.059071053 0.05972664
000090 96 d4 e3 3d 67 a4 28 3c db e4 7d bd 64 5f 92 3e
       0.11124532 0.010293103 -0.06198583 0.28588402
0000a0 3c 7b 90 3c ff 88 94 3d bc 18 bc bd 2d b4 82 bd
       0.017636888 0.072526924 -0.09184405 -0.06382022
0000b0 e5 52 38 3d 86 67 dd 3d b3 0b be 3c 45 dd f0 bd
       0.04500093 0.10810761 0.023198938 -0.11760954
0000c0 ca 05 89 b9 1a 75 ff 3d 56 09 16 bd 22 91 c4 3d
       -0.0002613499 0.12473507 -0.036629997 0.095979944
0000d0 8e 37 5e bc 59 41 80 bd 9f a0 ef bc 7d b5 1a be
       -0.01356305 -0.06262464 -0.029251395 -0.15108295
0000e0 1c 24 01 be cf e4 04 3e 52 52 a9 bd c0 5b 16 3e
       -0.12611431 0.12977909 -0.082676545 0.14683437
0000f0 d5 41 fe bd f9 f7 43 be ba d9 05 3e 12 52 93 bd
       -0.124149 -0.19137563 0.13071337 -0.07193388
000100 b9 87 24 3d 27 f2 fb 3c 94 39 70 bc 91 46 54 bd
       0.040168498 0.030755116 -0.014662165 -0.05182511
000110 13 19 1f 3e 78 d4 54 be 41 40 8f 3c f9 19 9a bd
       0.15536909 -0.20784175 0.017486693 -0.07524485
000120 48 6f 12 bd b7 9a 45 bd 65 ec e3 3d 79 d4 a3 3c
       -0.035750657 -0.04824325 0.11129073 0.019998776
000130 74 6f c9 bd c3 bf 96 bd d3 2a 46 3d 4a 4a be bd
       -0.09835711 -0.073607944 0.048380684 -0.09291513
000140 40 57 48 be ae 3f e7 3d 77 94 97 3c 1d d5 ad bd
       -0.19564533 0.11291443 0.01850341 -0.08487914
000150 4c 61 28 bd 2f 84 c7 ba 8b f5 89 bd 0d af 2d 3e
       -0.041108415 -0.0015221889 -0.06736287 0.16961308
000160 2f a3 7e bd 68 1d 44 3d e4 ab 2b be 55 30 34 3d
       -0.062167343 0.047879606 -0.1676479 0.043991406
000170 b3 8c 14 3e ef 28 63 3d 5b 09 2a bd 7f 4f 56 bd
       0.14506797 0.05545896 -0.04151283 -0.052321907
000180 d2 eb ac 3d 7c a5 81 3d 5d ef 77 3d e2 01 79 3b
       0.08443417 0.06330392 0.06053101 0.0037995507
000190 05 84 c1 bd 0b 87 36 3e 9a f6 c3 3d c8 3a d7 bd
       -0.09449009 0.17824952 0.0956852 -0.105092585
0001a0 a4 f9 3d bd cf 31 42 3d 44 63 68 bb a0 09 f8 3d
       -0.046380654 0.047410782 -0.0035459558 0.12111211
0001b0 1e e6 83 bd 78 da f4 3b 4e d4 0c bb 07 75 d3 3d
       -0.06440376 0.0074723326 -0.0021488848 0.103250556
0001c0 3f 12 51 be 29 42 99 bd 03 16 68 bd 13 1f 9c 3d
       -0.20417117 -0.07483322 -0.056661617 0.076231144
0001d0 87 4e ea bb 01 d8 b4 bd 76 f9 22 3c 31 ff b6 bb
       -0.0071504745 -0.08830262 0.009947171 -0.0055846204
0001e0 98 32 c1 3d c5 94 20 3e ff e1 15 3b 81 12 d9 bd
       0.09433478 0.15681751 0.00228703 -0.105992325
0001f0 56 ec 38 be 8b cf 7f bd 3d ee 09 3d e6 af a7 3d
       -0.18058905 -0.062453788 0.033674467 0.08187847
000200 e5 5a e1 bd 51 f4 6d bd 4d 41 4a 3c fe 05 d2 3b
       -0.11003665 -0.058094326 0.0123446705 0.0064094057
000210 bf 41 84 3d 85 b4 38 bd 94 98 52 3c 1a fb be 3d
       0.064578526 -0.04509403 0.01285376 0.093252376
000220 79 08 06 bd be 12 86 3d 9c 3b 16 3d f9 7e 8e bd
       -0.032722924 0.065465435 0.03667794 -0.06957812
000230 72 df 61 3d 74 8a 85 3d f1 b0 02 bd b0 a8 a4 bc
       0.055144735 0.065205485 -0.031907026 -0.020099968
000240 1f 22 f0 39 a1 41 70 3d d6 77 f3 bc e2 2f d0 3d
       0.0004580179 0.05865634 -0.029720228 0.10165383
000250 fc 89 fa 3d 04 bd 31 bd 77 5d 21 be ef 41 fe bc
       0.1223335 -0.04339315 -0.1575831 -0.031037299
000260 81 de 2f 3b 5b 52 7f 3d f4 10 61 3d c3 47 fc bc
       0.0026835504 0.0623344 0.05494781 -0.030795937
000270 19 f0 41 bd f2 b3 90 bd cb 5a e8 3d cb 1e 3f 3d
       -0.047348116 -0.07065572 0.113454424 0.046660226
000280 ed a5 23 3e 82 cd b2 3d 0d 61 4b bd 5f 4c 9a bc
       0.15981264 0.08730604 -0.0496531 -0.018835245
000290 ed d7 8f bc 68 d4 fe 3d be cc 67 3c 98 66 95 bd
       -0.017559016 0.12442857 0.014147935 -0.07294959
0002a0 a2 6c 08 be 75 53 29 3e 4a cc 6e bd 9a 63 2d 3d
       -0.1332269 0.16535743 -0.058300294 0.042331316
0002b0 89 70 b9 3c e7 8c bf bc 7f 81 16 3d c3 79 b5 3d
       0.022636669 -0.023382617 0.03674459 0.08861115
0002c0 e2 3d 26 be 8a e2 0b be f5 1e 8f bd 12 a1 52 3b
       -0.16234544 -0.13660637 -0.069883265 0.0032139462
0002d0 ee c0 c9 ba 36 70 fb 3b c9 1a 97 3d 16 10 12 be
       -0.001539258 0.0076732887 0.07378156 -0.14263949
0002e0 12 7f ad 3d fb 64 c2 3d 39 c7 a2 3d e5 b4 d5 b9
       0.08471502 0.09491917 0.07948155 -0.00040761303
0002f0 12 9e a3 3c 66 b5 6c 3c 44 00 aa bc b4 4f d6 bb
       0.019972835 0.014447546 -0.02075208 -0.006540263
000300 32 db cb bd 7f c2 fd bd 3c d4 ff 3c 4d e4 8e 3d
       -0.099539176 -0.12390613 0.03122913 0.06977139
000310 f2 39 b7 bd 43 3c 09 bd c9 05 14 3e 6a 2a 6d 3d
       -0.08946599 -0.033504736 0.14455332 0.057901777
000320 39 0d cd bd b8 28 1d 3e cd 72 09 be 26 e0 a7 bd
       -0.10012288 0.15347564 -0.134227 -0.0819705
000330 37 9c 00 be 50 56 22 3d a9 b8 b3 3d cb b0 15 be
       -0.12559591 0.039633095 0.087754555 -0.14618222
000340 f3 5b 4b be 70 d7 74 3c ad f1 41 b8 21 8c cc bd
       -0.19859295 0.014943942 -4.6239864e-05 -0.09987665
000350 e8 21 a3 bd f9 2f 86 bc f3 95 c3 bd a7 e8 68 3d
       -0.079654515 -0.016380297 -0.09550085 0.0568625
000360 e8 50 0b bc b3 60 3c 3e 60 c8 ef bc 1d 65 1c 3e
       -0.008503176 0.18396263 -0.029270351 0.15272947
000370 de 70 2f be 3f 4e d4 bd 1c 8b a4 bd 4f 58 46 bd
       -0.17132899 -0.10366487 -0.080343455 -0.04842406
000380 d7 74 d5 bd 93 35 14 bc 09 f9 c7 3d 69 5d 2c bd
       -0.10422676 -0.009045976 0.097642966 -0.04208127
000390 08 63 e9 bc 95 af 0e 3c 84 ec 73 3d fa cc 2c 3e
       -0.028489605 0.008708854 0.05955173 0.16875067
0003a0 7d 3d 06 3d 69 19 89 bd 12 e6 23 3e 75 58 2b 3d
       0.032773484 -0.066943 0.16005734 0.041832406
0003b0 2e e9 9b 3d c9 11 94 3c ac c3 2b 3d 4a cc 91 3c
       0.07612835 0.018074887 0.041934654 0.017797608
0003c0 83 ac d8 bc 17 77 0a 3e 6f 51 07 3e fe 35 7e bd
       -0.026449447 0.13521992 0.13214658 -0.06206321
0003d0 f5 a5 5f bc c2 88 59 bd 4c 47 bb 3d 9c ad 08 be
       -0.013650407 -0.053108938 0.09144458 -0.13347477
0003e0 da d3 f5 bd 68 2f b1 bb 36 f1 02 be 11 e0 2e 3e
       -0.12003298 -0.0054072626 -0.12787327 0.17077662
0003f0 9b d0 98 3d 42 f9 b8 3d df e6 3e ba 38 12 f7 3c
       0.07461663 0.09031917 -0.0007282327 0.030160055

network_body._body_endoder.seq_layers.0.bias f4 [128]
000000 00 00 00 00 00 00 00 00 00 00 00 00 00 00 00 00
       0.0 0.0 0.0 0.0
000010 00 00 00 00 00 00 00 00 00 00 00 00 00 00 00 00
       0.0 0.0 0.0 0.0
000020 00 00 00 00 00 00 00 00 00 00 00 00 00 00 00 00
       0.0 0.0 0.0 0.0
000030 00 00 00 00 00 00 00 00 00 00 00 00 00 00 00 00
       0.0 0.0 0.0 0.0
000040 00 00 00 00 00 00 00 00 00 00 00 00 00 00 00 00
       0.0 0.0 0.0 0.0
000050 00 00 00 00 00 00 00 00 00 00 00 00 00 00 00 00
       0.0 0.0 0.0 0.0
000060 00 00 00 00 00 00 00 00 00 00 00 00 00 00 00 00
       0.0 0.0 0.0 0.0
000070 00 00 00 00 00 00 00 00 00 00 00 00 00 00 00 00
       0.0 0.0 0.0 0.0
000080 00 00 00 00 00 00 00 00 00 00 00 00 00 00 00 00
       0.0 0.0 0.0 0.0
000090 00 00 00 00 00 00 00 00 00 00 00 00 00 00 00 00
       0.0 0.0 0.0 0.0
0000a0 00 00 00 00 00 00 00 00 00 00 00 00 00 00 00 00
       0.0 0.0 0.0 0.0
0000b0 00 00 00 00 00 00 00 00 00 00 00 00 00 00 00 00
       0.0 0.0 0.0 0.0
0000c0 00 00 00 00 00 00 00 00 00 00 00 00 00 00 00 00
       0.0 0.0 0.0 0.0
0000d0 00 00 00 00 00 00 00 00 00 00 00 00 00 00 00 00
       0.0 0.0 0.0 0.0
0000e0 00 00 00 00 00 00 00 00 00 00 00 00 00 00 00 00
       0.0 0.0 0.0 0.0
0000f0 00 00 00 00 00 00 00 00 00 00 00 00 00 00 00 00
       0.0 0.0 0.0 0.0
000100 00 00 00 00 00 00 00 00 00 00 00 00 00 00 00 00
       0.0 0.0 0.0 0.0
000110 00 00 00 00 00 00 00 00 00 00 00 00 00 00 00 00
       0.0 0.0 0.0 0.0
000120 00 00 00 00 00 00 00 00 00 00 00 00 00 00 00 00
       0.0 0.0 0.0 0.0
000130 00 00 00 00 00 00 00 00 00 00 00 00 00 00 00 00
       0.0 0.0 0.0 0.0
000140 00 00 00 00 00 00 00 00 00 00 00 00 00 00 00 00
       0.0 0.0 0.0 0.0
000150 00 00 00 00 00 00 00 00 00 00 00 00 00 00 00 00
       0.0 0.0 0.0 0.0
000160 00 00 00 00 00 00 00 00 00 00 00 00 00 00 00 00
       0.0 0.0 0.0 0.0
000170 00 00 00 00 00 00 00 00 00 00 00 00 00 00 00 00
       0.0 0.0 0.0 0.0
000180 00 00 00 00 00 00 00 00 00 00 00 00 00 00 00 00
       0.0 0.0 0.0 0.0
000190 00 00 00 00 00 00 00 00 00 00 00 00 00 00 00 00
       0.0 0.0 0.0 0.0
0001a0 00 00 00 00 00 00 00 00 00 00 00 00 00 00 00 00
       0.0 0.0 0.0 0.0
0001b0 00 00 00 00 00 00 00 00 00 00 00 00 00 00 00 00
       0.0 0.0 0.0 0.0
0001c0 00 00 00 00 00 00 00 00 00 00 00 00 00 00 00 00
       0.0 0.0 0.0 0.0
0001d0 00 00 00 00 00 00 00 00 00 00 00 00 00 00 00 00
       0.0 0.0 0.0 0.0
0001e0 00 00 00 00 00 00 00 00 00 00 00 00 00 00 00 00
       0.0 0.0 0.0 0.0
0001f0 00 00 00 00 00 00 00 00 00 00 00 00 00 00 00 00
       0.0 0.0 0.0 0.0

network_body._body_endoder.seq_layers.2.weight f4 [128, 128]
000000 c6 a5 d6 bd 8d 3b 04 be 53 b6 2a 3e 7f 1e b1 be
       -0.104808375 -0.12913342 0.16671114 -0.3459358
000010 0c 75 18 bd 44 d2 f2 bd 99 00 a0 3c 6e 5f c0 3c
       -0.037221 -0.11856511 0.019531535 0.023483004
000020 69 7f 69 bd 48 d7 a0 3d ea 76 3f bd cc 6b 3a be
       -0.057006273 0.07853562 -0.046744265 -0.18205184
000030 d7 83 40 bd 7a 24 a6 bc df e8 b5 bd bd 1d 65 3d
       -0.047000732 -0.020281065 -0.08882307 0.055936564
000040 76 95 f6 bc f5 ba c5 bd fe 53 88 3d 4d 35 8d 3d
       -0.030100565 -0.096548 0.06656645 0.06894932
000050 40 84 4b bd c6 a9 3a 3c 30 f6 91 3c de 73 2a be
       -0.04968667 0.011393016 0.017817587 -0.16645762
000060 9a f8 9a 3c 82 0a 0c bd 75 c4 eb 3d 44 b6 66 bd
       0.01891737 -0.03418971 0.115120806 -0.056326166
000070 77 03 00 be ac 44 62 be ca 3b 46 3e df be 1a 3d
       -0.12501322 -0.22096509 0.19358745 0.037779685
000080 76 2c 1a bc a6 13 6c bc dd 85 ea bd 3c a8 8b 3c
       -0.009410014 -0.014408981 -0.11451314 0.017047994
000090 8b 12 d4 bd 82 9f 95 bd 20 57 8d 3c 3e 2c 8e bb
       -0.10355099 -0.07305814 0.017253458 -0.00433877
0000a0 22 62 37 3e 3a ba 55 3c 64 26 4f 3d 8c 5d 32 3d
       0.17908528 0.013044888 0.05057372 0.043546245
0000b0 bc 73 0e 3d 83 12 f0 bd 86 15 c0 bd 33 9a 94 bc
       0.03477834 -0.11722281 -0.09379105 -0.018139934
0000c0 87 14 77 bd ee 43 7c 3d 5b ee 1d 3d c8 62 a6 3d
       -0.06032231 0.06158822 0.03855739 0.0812431
0000d0 a3 72 c0 3d ef 21 82 bd 58 b0 a1 bd 50 19 ae bb
       0.09396865 -0.063541286 -0.07894963 -0.005313076
0000e0 b7 38 19 be 1e 7a 20 3e 71 1c 03 3d 00 77 f4 3c
       -0.14963041 0.15671584 0.032009546 0.0298419
0000f0 bb 8b 1d be 8f 0f b4 3c 11 73 8e bd 0b 7a 17 bd
       -0.15385334 0.021980075 -0.06955541 -0.036981624
000100 32 96 7c 3d c7 ae 50 bd 8e 42 96 3e 1c 56 03 be
       0.061666675 -0.05094793 0.29347652 -0.12825817
000110 4a d8 af 3d 9d ce 3d bd 93 21 c1 bc 8a 54 3a bd
       0.08586176 -0.04633962 -0.02357558 -0.04549078
000120 2d 5b ea 3d 11 e5 22 3d ed 16 dc bd 50 a0 ff 3d
       0.11443172 0.039769236 -0.1074656 0.12481749
000130 f4 62 54 3a 17 dd 44 be c3 2c cb 3c a8 a6 fa bc
       0.00081019034 -0.19224964 0.024801617 -0.030597046
000140 6e 0e 3b be 37 95 82 bd f7 e4 27 3e eb ab af bd
       -0.18267223 -0.06376117 0.16395937 -0.085777126
000150 d5 79 9d bd fa 76 bb 3d 56 e4 25 3d 9f 66 1d be
       -0.07689253 0.09153552 0.04050096 -0.15371178
000160 69 b9 98 bd 80 43 3a 3d bd 05 13 3e f2 b9 9f bc
       -0.07457239 0.04547453 0.14357658 -0.019497845
000170 a3 55 23 bd 0e 9b 11 be 6b 5e c7 bd 58 10 48 bb
       -0.03987659 -0.14219305 -0.09734806 -0.003052732
000180 dc 93 6b 3d 60 50 92 bd 34 07 0a be d7 ff c4 3d
       0.057514057 -0.071442366 -0.1347931 0.0961911
000190 05 c6 3c bd 01 87 df 3c 82 2a 8e 3d 84 0e 81 bd
       -0.046087284 0.027286055 0.069417015 -0.06301597
0001a0 11 14 8f 3d 63 e8 12 bd 0d a6 1d 3e 1b 2f 34 be
       0.06986249 -0.035866152 0.15395375 -0.17596094
0001b0 e9 0b dc 3d 42 26 58 bb 76 fa 67 3d 7e 4d 14 be
       0.10744459 -0.0032981788 0.056635343 -0.14482686
0001c0 7c eb b5 3d 9f 8f 68 bd 56 23 1d 3e 90 67 dc bd
       0.08882806 -0.056777593 0.15345511 -0.107619405
0001d0 00 6b ce bd 2e c9 7d bd 3a 73 83 3c 11 23 21 3d
       -0.100790024 -0.061959438 0.016046155 0.039340083
0001e0 b6 a3 de 3d 29 9c ab 3d 0b e6 83 3d 1b 76 9b bc
       0.10871069 0.083793946 0.064403616 -0.018977216
0001f0 35 5f 07 be cc 76 08 3e 8f a6 00 be f0 3a 59 bd
       -0.13219912 0.13326567 -0.12563537 -0.053034723
000200 2d 1e bd bd 35 5b f7 3c 1c 9e 84 3d 15 8f 1f 3c
       -0.09234271 0.030194858 0.064754695 0.009738703
000210 05 a1 31 bd cf 42 96 bd 1f 02 27 bd ef 0c 73 bd
       -0.04336645 -0.073369615 -0.040773507 -0.059338506
000220 97 d2 4f 3c 1b 11 13 3e ff e6 43 bd 4e 30 84 3d
       0.012684486 0.14361994 -0.047827717 0.06454526
000230 27 61 09 3e 2b b1 24 bd ab 61 98 bd 42 fc 0c 3e
       0.13415967 -0.040208023 -0.07440504 0.13768104
000240 66 91 1b 3d 1d 25 05 3e 05 03 88 3d bb cf 74 3d
       0.03798046 0.13002439 0.06641201 0.05976842
000250 31 af 50 bd 92 e6 2a 3e 10 f7 e1 bd 05 e9 4a bd
       -0.050948326 0.16689518 -0.110334516 -0.04953863
000260 f5 cd bb bc 97 33 c9 bd a0 f3 b3 3d e7 8c 5e 3d
       -0.022925356 -0.09824293 0.08786702 0.054333594
000270 24 45 5e 3d 98 58 09 3d ae a6 85 bd 14 4f 9c bd
       0.054265156 0.033531755 -0.06525932 -0.076322705
000280 42 1c a2 bc 43 2a 93 3d a4 73 4d 3d 37 3f 21 be
       -0.019788865 0.07185795 0.05015911 -0.15746771
000290 df fd 0c be b7 fa d7 3d 2d aa 27 bd 3d d4 f6 bd
       -0.13768719 0.10545867 -0.040933777 -0.120522
0002a0 34 61 a2 bd d4 ea 1b 3e 3e 1e 17 be 5f e0 d5 3d
       -0.07928696 0.15226299 -0.1475763 0.10443186
0002b0 3c 2c 1d 3e 73 9b 57 bd 5e 0f 8d 3c 69 1e 41 bd
       0.15348905 -0.052638482 0.017219242 -0.047148142
0002c0 05 4b ab bd f9 fa 63 3d dd 6d bd 3c d8 83 39 be
       -0.08363918 0.055659268 0.023123676 -0.181167
0002d0 cd 59 11 3e 49 96 9f bd 1c aa 1c be 64 8e 44 3c
       0.14194413 -0.077923365 -0.15299267 0.011996839
0002e0 70 f1 23 3d 04 f7 23 3e 7c 4e 65 bd 73 8c 45 3d
       0.040025175 0.16012198 -0.05598305 0.048229646
0002f0 6c c5 cb bd 0f b6 1f 3d 55 54 07 3e ba e0 75 bd
       -0.099497646 0.038991984 0.13215764 -0.06002877
000300 79 2b 9b bc d8 8c 89 bc 3b fc 6e bd 24 ee 37 bd
       -0.018941628 -0.016790792 -0.058346014 -0.044904843
000310 c6 aa cf bd b5 ad 04 be b4 2c 8e bd 47 13 ed bc
       -0.10139994 -0.12956889 -0.0694212 -0.028939856
000320 1a 27 c7 bd 47 92 34 bd bc fa 8f 3c 8e f3 51 3a
       -0.09724255 -0.044084813 0.017575614 0.000800901
000330 55 49 b1 3d 73 6c c2 bd 4b 3e c0 3d f8 1b e3 3c
       0.08656565 -0.09493341 0.093868814 0.027723297
000340 21 18 45 3d 13 01 fd bb b3 11 4f 3d 87 87 14 bc
       0.048118714 -0.0077210753 0.05055399 -0.009065515
000350 2d dc e5 3c a0 9c f4 bd 21 a7 95 3d 99 b7 8a 3d
       0.02805909 -0.11943936 0.07307268 0.067733
000360 63 7c 06 bd e4 5f f7 bc b8 10 19 3d ad 14 8c bd
       -0.03283347 -0.030197091 0.03736946 -0.06839881
000370 41 fc ff bc 13 6d 7a bc 3d fa fa bd b9 52 09 be
       -0.031248214 -0.015284794 -0.122547604 -0.13410462
000380 cc 4d ca 3d e2 da 36 bd e1 db 6a 3b 67 7e fc bc
       0.0987812 -0.044642337 0.0035836624 -0.030821992
000390 79 99 1e 3d 94 a7 9f bd d0 db 2e 3d 35 c8 6c 3e
       0.03872058 -0.07795635 0.0426901 0.23123248
0003a0 1c 33 06 3a ef 9a b0 bd 71 35 8c bd 2b 7f ea bd
       0.000511931 -0.08623301 -0.06846131 -0.114500366
0003b0 68 93 14 bd 28 e2 17 bb 69 22 f3 bd 5e e8 08 3e
       -0.03627339 -0.002317557 -0.118717976 0.13369891
0003c0 cc 7b be 3d e6 8b 78 bd 56 e7 75 3d 60 da cc bc
       0.09300956 -0.060680293 0.060035072 -0.025006473
0003d0 a1 58 dc 3d da d4 ad bc 9f 18 50 be f0 d3 8e 3d
       0.10759092 -0.02121966 -0.20321892 0.069740176
0003e0 7e d0 ac 3d a7 e6 a8 3d 4e 7d e6 bb 77 ef 91 bc
       0.08438204 0.082471184 -0.0070339805 -0.017814381
0003f0 79 3a 22 3e 9e fa 82 bc c8 6e 9d 3d 58 eb c0 bd
       0.15842618 -0.015988644 0.076871455 -0.09419888

action_model._discrete_distribution.branches.0.weight f4 [5, 128]
000000 3e 50 a7 3b fd 69 99 bc 6e 11 4c bb 43 bc b4 bb
       0.005106001 -0.018727297 -0.0031138319 -0.0055156066
000010 62 53 0a bc ff bc 26 bc 1a 0e c3 bb e5 a7 56 bc
       -0.008442732 -0.010176896 -0.005952609 -0.013101553
000020 ca 7d da 3b 3d 68 51 3c ab 60 c5 bb fd 05 99 ba
       0.0066678273 0.0127812 -0.0060234866 -0.0011674758
000030 11 98 4c bb f2 e0 b0 bb a0 e8 c3 bb 8a d6 6f 3c
       -0.0031218568 -0.0053979093 -0.005978659 0.014638552
000040 bd 81 ac bc a3 d9 b7 bb 0f 5b ec 3b c8 89 d9 bb
       -0.021057958 -0.005610661 0.0072130035 -0.0066387393
000050 67 ba a1 bb 7a 90 03 bc ee be aa 3b ab df fe 3b
       -0.004935551 -0.008030051 0.005210749 0.007778128
000060 fd 3c a4 3b 37 65 d7 3b d3 70 58 3c 34 2d 1f bc
       0.005012153 0.006573345 0.013210493 -0.009715367
000070 85 a3 e3 ba 1f b7 29 39 a5 73 63 3c d7 de 28 bc
       -0.0017367458 0.00016185314 0.013882552 -0.010307035
000080 c7 ba a9 3b 0c d4 40 bc 03 84 19 bc 87 23 c2 bb
       0.0051797363 -0.011769306 -0.009369853 -0.0059246453
000090 ee ea a7 b9 0f 21 12 3c 12 db 2b bc fa 5f 50 bb
       -0.00032027758 0.008919015 -0.010489242 -0.0031795488
0000a0 0b f8 0f bc ef b2 df 3b 7e 1c 35 3c f5 11 d1 bb
       -0.008787165 0.0068267505 0.011054156 -0.0063803145
0000b0 e5 cc 70 3c 80 78 fb bb cb 25 e3 bb e8 8e e2 b9
       0.014697288 -0.007674277 -0.0069319955 -0.00043212553
0000c0 f2 e9 3c 3b df d7 a4 bb df ee 27 bc 5d f2 0f 3c
       0.0028825966 -0.0050306167 -0.010249822 0.008785811
0000d0 ef 2a 7b 3c 17 09 92 3c f5 23 dd 3a 0f 6a 37 3c
       0.01533006 0.0178266 0.0016871678 0.01119472
0000e0 ab af 34 bc e2 56 7d b9 2f a0 fc bb e0 b6 0e bc
       -0.011028211 -0.00024160327 -0.007709525 -0.008710593
0000f0 02 e8 58 3c 55 26 f5 bb ce 1c 8c 3c fe c8 40 3b
       0.013238909 -0.007481376 0.017103579 0.0029416676
000100 49 a8 34 3c f7 f8 a2 ba 48 2f d0 38 f4 48 0c ba
       0.01102645 -0.0012433816 9.92702e-05 -0.0005351447
000110 7c e2 38 bc fb 5e 3f 3b 1a ff 22 3c 1c 96 44 3b
       -0.011284467 0.00292009 0.009948516 0.0029996699
000120 a4 ac 98 3b 03 e0 a5 bc f7 82 1d 3b 76 60 93 3b
       0.0046592522 -0.020248419 0.002403436 0.004497583
000130 ae 78 32 ba aa 11 0c 3b 03 c9 c3 bb 6f 38 22 bc
       -0.0006808144 0.0021372833 -0.00597489 -0.00990115
000140 53 d4 84 3a 42 e6 03 3c 66 27 a1 3b fb 28 c7 3b
       0.0010134078 0.008050503 0.0049180267 0.0060778833
000150 7f e0 cc bb 2d 73 dc 3a 89 53 18 bb 73 5c 98 ba
       -0.006252348 0.0016818993 -0.002324315 -0.0011624232
000160 69 dd 8a 3c 65 32 cc 3a 15 31 35 bc b7 2f 93 bc
       0.01695128 0.0015578984 -0.011059065 -0.017967088
000170 d5 a9 19 bc 45 b8 b2 3a 58 01 e9 3a dc 5f 01 3c
       -0.00937887 0.0013635239 0.001777689 0.00789639
000180 0b b4 2d 3c bd ce 8d ba 89 24 44 3c 9a 73 19 bb
       0.010602008 -0.0010819059 0.011971601 -0.0023414851
000190 eb d5 08 bc bb 4c 5d 3b 67 0a 2f bc 48 ee 2e 3b
       -0.008351783 0.0033767659 -0.010683632 0.002669232
0001a0 13 d5 5f 3b bb 30 8c bb 88 67 d4 3b 1d 6d 13 bb
       0.0034154102 -0.00427827 0.0064820684 -0.0022495457
0001b0 87 d3 0b 3c 74 09 02 3c 5d d4 ad b9 b2 2d 93 3b
       0.008534319 0.007936824 -0.00033155354 0.0044915313
0001c0 43 f9 a8 bb cf a1 0c ba 28 32 06 bc 5f 20 0d bc
       -0.0051566674 -0.00053646875 -0.008190669 -0.008613675
0001d0 4f c2 a2 3a 87 13 85 3b ab 73 9a bb a1 42 18 ba
       0.0012417528 0.0040611657 -0.0047134957 -0.00058082683
0001e0 c2 9c e8 bb 5d 04 bf 3b 53 df 72 bb 3f e1 c0 3a
       -0.007098765 0.0058293776 -0.003705938 0.0014715566
0001f0 2e 05 b0 bb 18 c5 9a bb 7a b4 8a 3a be a4 ae 3b
       -0.005371711 -0.0047232024 0.0010582351 0.0053296974
000200 30 f7 ea bb ff 0e d9 bb 80 b4 6a 3b c0 8c 00 bc
       -0.0071705803 -0.006624102 0.0035813153 -0.007846057
000210 e4 ef 4a 3b f1 59 15 3b 4c 8e 23 bc 27 e7 aa 3b
       0.003096574 0.0022789205 -0.009982657 0.005215544
000220 cf c6 e1 bb 85 32 f2 bb a1 b0 47 bb 97 50 42 3c
       -0.006890155 -0.0073912763 -0.003047027 0.011860034
000230 a5 3f f6 bb f3 24 e7 bb c5 f4 d5 3b dd 82 c1 ba
       -0.0075149112 -0.0070539652 0.006529423 -0.0014763732
000240 a1 e9 39 bb 38 67 cf bc 2b 78 18 bb b7 b1 52 3b
       -0.0028368013 -0.025317773 -0.0023264985 0.0032149383
000250 17 73 58 3c 67 5a b5 3a 63 88 c5 3b 37 20 21 3c
       0.013211033 0.0013836146 0.0060282215 0.009834341
000260 ec 44 bf ba 21 c1 c4 bb c8 7d d7 ba 0d 4a 7d bc
       -0.0014592684 -0.006004468 -0.0016440684 -0.01545955
000270 a6 96 93 3b a5 04 9a bb 18 3b 07 bb 47 a2 22 36
       0.0045040427 -0.0047002607 -0.0020634588 2.423434e-06
000280 69 c6 9f 3b 12 f0 42 bb eb 2c 91 3b 85 23 56 3c
       0.0048759473 -0.0029745144 0.0044304035 0.013069992
000290 2f ee 8b bc a8 c5 74 3b ca a9 2d bc 4b 44 ce bc
       -0.017081348 0.0037349258 -0.010599563 -0.025179049
0002a0 7b 02 95 bb 9f 79 46 3c 5c 6f cb 3b 10 d9 bb 39
       -0.004547415 0.012113958 0.0062083434 0.00035829144
0002b0 23 55 21 bb c5 9d 56 3a 0b 5b 1c 3b 93 a5 ff bb
       -0.0024617396 0.00081869616 0.0023857977 -0.0078017204
0002c0 d0 4d de bb 23 1c 45 bc c0 36 43 bc 1f ae 3d bc
       -0.0067841783 -0.012030634 -0.011914909 -0.011577158
0002d0 67 b8 dc 39 5f b0 92 3b d6 d7 45 ba 7b 31 6a 3c
       0.0004209906 0.0044765915 -0.00075471157 0.014294024
0002e0 a2 b7 4b b9 ab f8 11 bb 44 29 36 3c 90 67 f5 ba
       -0.00019427997 -0.0022273462 0.011118237 -0.0018722881
0002f0 90 3c 05 3c bf a0 ba bb 49 5d 99 bc 97 b2 70 bb
       0.008132115 -0.005695432 -0.01872124 -0.0036727542
000300 6d e4 80 bb 8a 1a 68 3c 5c f5 8e bb b7 dc b3 ba
       -0.0039334805 0.014166484 -0.004362745 -0.0013722394
000310 e2 f1 99 bc 94 9e 02 3a 67 25 5b bb ca 26 78 3c
       -0.018792097 0.00049827364 -0.0033439042 0.015145967
000320 fb 45 84 3b fb 02 3c 39 a8 5f 6a bc 0a 8b f6 3b
       0.0040366626 0.00017930187 -0.014305033 0.007523899
000330 fa 25 da bb 27 d8 5f ba 3b 55 a4 3b 02 04 da 3b
       -0.006657359 -0.0008538984 0.005015043 0.00665331
000340 60 95 d8 bb f0 30 78 3c dd 3e a9 3c 70 4c a0 3b
       -0.0066096038 0.015148386 0.020659858 0.0048919246
000350 c8 06 3c bc a3 71 40 3c 85 29 ff 39 ce d3 86 bb
       -0.011476226 0.011745843 0.00048668325 -0.0041146046
000360 be 09 18 bc 63 74 50 bb f2 60 2a 3a bf c2 12 3a
       -0.0092796665 -0.0031807653 0.00064994313 0.00055984774
000370 77 1d e9 3b 6f f9 4e b7 b2 b6 dd 3b cb 6c b9 ba
       0.007114108 -1.2336633e-05 0.0067661637 -0.0014146803
000380 f1 1f 4c 3b e6 90 0d bc fd f8 e9 bb 52 a8 c9 b9
       0.0031146968 -0.0086405035 -0.0071402774 -0.00038463116
000390 57 29 81 3b 88 9d 10 bc 11 87 87 ba 00 66 a9 bb
       0.0039416957 -0.008826621 -0.0010339936 -0.00516963
0003a0 5e fd 44 3c b5 8e 45 ba 2b a3 35 3b 2f ef 85 3a
       0.012023298 -0.00075362186 0.0027715664 0.0010218377
0003b0 ef ed 35 bc cc cc 32 3a ff 04 6c 3b a0 ad 0f 3c
       -0.011104091 0.0006820678 0.003601372 0.008769423
0003c0 c2 19 d3 3b 4a 32 2b bc 06 8e 25 bb 51 87 42 bc
       0.0064422796 -0.010449002 -0.0025261655 -0.011873082
0003d0 17 f7 6e ba a3 3c 09 bc 9b e1 3f bb e9 4a 2f bb
       -0.0009115799 -0.008376273 -0.0029278758 -0.002674753
0003e0 fd cc 0c 3c 29 54 00 3c 3b 03 29 bc f7 ec a3 3c
       0.008593795 0.007832565 -0.010315712 0.020010455
0003f0 d1 f1 3a bb 6d 4a 08 bb ba a8 88 bc 8f 89 31 3b
       -0.0028525481 -0.0020796314 -0.016682018 0.0027090048

action_model._discrete_distribution.branches.0.bias f4 [5]
000000 00 00 00 00 00 00 00 00 00 00 00 00 00 00 00 00
       0.0 0.0 0.0 0.0
000010 00 00 00 00
       0.0
